submissions/rothlubbers/task1_bfFinal_CSW2D_stateDict.pth (torch_old, 17235 bytes, 19 tensors)

convLayers.0.conv.weight f4 [8, 2, 1, 65]
00000000: ee6b 8c3f a5fd 563f cf7f 433f f7ae 273f
00000010: 21f3 d93e 3862 bd3e ea10 e03e f2fe 9e3e
00000020: 2f45 ae3e 7ca0 e73d e53d af3e e202 203f
00000030: 28c9 ae3e 5d64 a8be 7c4e 3a3d 7279 083f
00000040: 5d40 213f 014b ea3e e93c 433e 3e1a aa3d
00000050: 0c52 e73d 53f4 6f3e 5ec1 783e cb60 04bb
00000060: 5b2a a93d 5083 aa3e 19e8 243e bce2 cb3c
00000070: df8e 5f3e 484c 653e 1fe7 893e c1e4 023e
00000080: 31a7 c63e 4e4b 823e 5baa 263e f814 b33d
00000090: cc19 063e a823 763e c296 143e 741c 5b3e
000000a0: 83af b53e 69e4 9fbd 0e50 913e d86b a03e
000000b0: 2b08 ccbc ffc7 3c3e c173 593e db34 393d
000000c0: ee75 713e cf0c e53d 9895 b33c 2206 513e
000000d0: cc37 263e 4b29 35bb fadc 053d e6a5 d73d
000000e0: 1a48 643e 29ee ae3d 80b4 0b3c dc87 28bd
000000f0: e156 993e 8ef2 e43e 8009 ca3d fcf2 873e
00000100: e3db 0f3f de1c fb3e a46f 523e 3c5a cc3e
00000110: f9ec 8e3e dcbf d63b f74c 36bd 9a89 663e
00000120: a798 c93e 7af2 063f 1335 fc3e 7bc7 903e
00000130: f253 423e 8aef ba3e ce5f 893e 55ad f13b
00000140: 6f34 fcbd 3d05 3c3e 291d 943e 825e e63e
00000150: c0ff 7a3e c0ea 36bc 06fd 703e 92b4 123e
00000160: f524 433c 5c62 00bd 6312 9d3d b486 3f3e
00000170: afba 10bd c929 2ebe 9b9a 34bc 8ec0 9c3c
00000180: 9a22 91bd a769 9e3c 3f21 02b9 6a04 5c3d
00000190: cb0a a33d 9a1d b73d 570c c53d 42d4 803e
000001a0: 222a d5bd 7121 0c3e 3135 9d3e 49d1 743d
000001b0: f1ac bd3e c860 703e ec2e fc3d f9b5 003f
000001c0: b1e1 ea3d b5d9 da3d 374b cb3e 5171 b83d
000001d0: e1ce 113e b4d9 533e 0229 ef3d 9110 893e
000001e0: f041 743e 248d 8e3e 1d6b dc3e 2637 8d3e
000001f0: 1d04 a43e 24fe e73e abb4 a63e e332 7b3e
00000200: 3d74 d93e a1d3 0b3f 596c 683f abb0 093f
00000210: 7ce9 973e fcec 5b3d f4db ae3d 8fa3 6b3e
00000220: 1a8f c43e 6efd 5e3e 16e3 053d f12b 453e
00000230: fc15 553d f343 ad3e 6680 6c3d ea50 56bd
00000240: e9c6 263d bf06 4fbd 7c74 f3bd 0b37 163d
00000250: f49f 7dbe fcff fbbd 4acc 9dbe f238 31be
00000260: a0d4 f5bd a0ed 35be 367a e4bd be11 72be
00000270: f739 b6bc 9b18 53be 6515 3dbe a7c2 7fbe
00000280: a178 27be 8eb4 23be 111b 15be 2eef eabd
00000290: 334c 25be f930 aebd f418 eabd ba18 4ebe
000002a0: 9985 26bd 5786 8fbd d5ef cdbd 6a1a b1bd
000002b0: b024 ec3b 8862 54bc e4fd b1bd 464b edbd
000002c0: 143f afbd efa1 29be f999 50bd 325d 12be
000002d0: 6330 45be c720 93be a746 62be 2d29 50be
000002e0: 016d d8bd ed1e 44be f259 3fbe 7030 89be
000002f0: cb41 5abe d1b1 86be 5121 f0bd 3524 97be
00000300: ee73 a7be 98a0 68be dedc dbbe cf38 143f
00000310: c1db 2f3f 18fc 0b3f 38f1 013f 092b 043f
00000320: e92c a23e d43e ab3e a474 a83e 455c 7cbd
00000330: 1c11 883e 9830 0d3c 4d30 b43d 2a1a 923d
00000340: 17d6 0cbd 3862 993d 2e42 08be ab7b 2cbe
00000350: 748a 4dbe f28b 93be 276e 23be a28f 06bd
00000360: eb38 d4be 57cc 63be b0ae 9dbe b56f 7fbe
00000370: 3bca 8abe c903 95be a9b4 8cbe bb2c 89be
00000380: c353 39be 692c 3ebe e880 ddbd 1e3f 0abe
00000390: 310c 19be 24ff 24be 3ade 45be dbea 0ebd
000003a0: e043 14be b1f2 6dbd c293 293c 8076 033d
000003b0: c455 ebbc 64e5 5abd 57ff b9bb c43f 023d
000003c0: 0c0b 54bd fd9c 06bd cf3e 89bd da1c 2dbd
000003d0: f278 883d 4c68 ab3d eb50 31bd 3b8b d83c
000003e0: 814a f73a b4a1 60bb 8a37 983d 894a af3b
000003f0: f106 0d3d 248c 0ebe e15c 22be 201e 9bbd
1.0970438 0.8398078 0.76366895 0.6550135 0.42568305 0.36988997 0.43762904 0.31053883
0.34037158 0.11309907 0.3422691 0.625044 0.34137845 -0.3288907 0.045485005 0.5331031
0.62988836 0.45760348 0.19066204 0.083057866 0.11294946 0.23433046 0.24292514 -0.0020199295
0.08260032 0.33303308 0.16104163 0.024888389 0.21831845 0.2239238 0.26934144 0.12782575
0.38799432 0.25448078 0.16275923 0.08744234 0.13095778 0.2403704 0.14510635 0.21397573
0.35485467 -0.07807238 0.2838139 0.31332278 -0.024906239 0.18435667 0.21235563 0.045216423
0.23580143 0.11184084 0.021921918 0.20412496 0.16232222 -0.002764302 0.032681443 0.105296895
0.2229313 0.08541519 0.008526921 -0.04114519 0.29949096 0.44716305 0.09865093 0.2655257
0.56194896 0.4904546 0.205504 0.39912593 0.2791517 0.006553633 -0.044506993 0.22513428
0.39374277 0.5271374 0.49259242 0.28277192 0.18977335 0.3651088 0.26830906 0.007375399
-0.123146884 0.18361373 0.28928497 0.4499398 0.24511623 -0.011164367 0.23534021 0.14326695
0.011910667 -0.031343803 0.076695226 0.18703729 -0.035334285 -0.17008127 -0.011023189 0.019134786
-0.07086678 0.019337488 -0.00012410151 0.053715147 0.07961043 0.08941193 0.09621494 0.2516194
-0.10408427 0.13684632 0.30704644 0.059769902 0.37046006 0.23474419 0.12313637 0.5027767
0.114688285 0.106860556 0.39705822 0.090059884 0.14239074 0.20688516 0.116777435 0.26770452
0.23853278 0.27842057 0.4305047 0.27581137 0.32034388 0.4531108 0.32559714 0.2453113
0.42471495 0.54619795 0.90790325 0.537852 0.29670322 0.053692803 0.085380465 0.23011611
0.38390428 0.21776363 0.03268727 0.19255044 0.05202292 0.33840904 0.057739638 -0.05232326
0.04071704 -0.050543543 -0.11887452 0.036673587 -0.24768049 -0.123046845 -0.30819923 -0.17306879
-0.120034456 -0.17766428 -0.111561224 -0.2363958 -0.022244437 -0.20614855 -0.18465193 -0.24976598
-0.1635461 -0.15986845 -0.14561106 -0.11471401 -0.16142349 -0.085054345 -0.11430541 -0.2012662
-0.040654752 -0.07008045 -0.1005551 -0.08647616 0.007206522 -0.012962945 -0.08691004 -0.11586623
-0.08556953 -0.16565679 -0.05092809 -0.14293364 -0.1925674 -0.28735945 -0.22097264 -0.20328207
-0.10567666 -0.19152422 -0.18686655 -0.26794767 -0.2131416 -0.26307538 -0.117251046 -0.2951981
-0.32705635 -0.22717512 -0.42941946 0.57899183 0.6869469 0.5468154 0.50758696 0.51628166
0.3167489 0.33446372 0.3290149 -0.061611433 0.26575553 0.008617543 0.08798275 0.07133897
-0.03438386 0.07489437 -0.13306496 -0.1684405 -0.20072347 -0.28817707 -0.15959989 -0.032851823
-0.41449675 -0.22245918 -0.30797338 -0.24944957 -0.27107415 -0.2910445 -0.27481583 -0.2679194
-0.18098359 -0.18571629 -0.108156025 -0.1350064 -0.14946057 -0.16112953 -0.19323054 -0.034891944
-0.14479017 -0.058092777 0.01035017 0.032095432 -0.02872742 -0.05344142 -0.005676191 0.031799093
-0.051768348 -0.03286456 -0.06701433 -0.042263843 0.066636935 0.083695024 -0.04329006 0.026433578
0.0018866808 -0.003427607 0.07432468 0.0053494615 0.034430448 -0.13920647 -0.15855743 -0.07574105

convLayers.0.conv.bias f4 [8]
00000000: e37d 14be f621 c9bc ed9a b4be 6ed6 9cbd
00000010: 3528 46be db17 773d 1cad fd3d 17df 64bc
-0.14501147 -0.024552327 -0.3527445 -0.07658087 -0.19351275 0.060325485 0.123865336 -0.013969204

convLayers.0.norm.weight f4 [8]
00000000: 4f1d a43f 4805 813f e299 f43e 1104 863f
00000010: af59 ad3f 1fd0 493f 65c4 7b3f de24 513f
1.2821444 1.0079737 0.47773653 1.0469991 1.3542994 0.7883319 0.9834655 0.8169688

convLayers.0.norm.bias f4 [8]
00000000: a17f 06bd 08ac 30bd 73d5 6e3f 1f0d 963f
00000010: d4e4 51be d13f 2e3f 10ae d7bd 2156 173f
-0.03283656 -0.04313281 0.9329445 1.1722754 -0.20497447 0.68066126 -0.10531247 0.591158

convLayers.0.norm.running_mean f4 [8]
00000000: 7afb 13be be37 cabc 0b67 b4be 9216 9cbd
00000010: 2b2f 46be 75d0 753d 7c70 fd3d 52ce 5ebc
-0.144514 -0.024684783 -0.35234866 -0.076214924 -0.1935393 0.060013253 0.1237497 -0.013598995

convLayers.0.norm.running_var f4 [8]
00000000: e0ec b738 9d21 5438 94cf c138 3d63 0939
00000010: f444 7438 b185 9138 7f43 0638 c68a 8e38
8.7702414e-05 5.0576044e-05 9.2416216e-05 0.00013102307 5.823835e-05 6.939041e-05 3.201095e-05 6.796936e-05

convLayers.1.conv.weight f4 [8, 8, 1, 15]
00000000: 764b d0bd f086 0dbe 70d5 97be 0759 87be
00000010: 28de 88be 6c33 a7be 3919 c3be d4e7 5cbe
00000020: dc4f 1bbe 242b 0dbe 27b1 7bbd 26bc 2b3d
00000030: 5574 3e3e 9c90 a43e 044b 463e 3a7c 023e
00000040: 3c88 fe3d ea2b 92bd b070 08be 58e2 d93c
00000050: 7783 cebd 371a 12be fb8f 1abe ef58 b8be
00000060: 1b4d f6be 7229 e1be e28b c9be 9c3c f3be
00000070: 026f 4abf 5f60 38bf 2051 80be a508 64be
00000080: 177d 61be afb8 93be b1e7 cdbd 9dbb 92be
00000090: f089 1abe 5917 33be feb1 45bd 22ac c5bd
000000a0: 9b10 6ebd c725 453d 1e09 193e 3372 b33e
000000b0: 4309 4b3e 48ef 4d3e f082 c03d c447 c73d
000000c0: 9281 fbbc f6c3 3b3d 8c1d 9f3d 6086 4a3e
000000d0: a40a 7a3c 1fab cd3d 546a 093e 3b70 ae3e
000000e0: 9d56 fe3e f677 e63e 525e 3e3f 91a3 303f
000000f0: 6f90 ecbe 49d7 9fbe d422 cdbe 468e c4be
00000100: d8e1 f8be 00b7 07bf c80e c7be 0a4e bfbe
00000110: f9aa d8be 2cd6 04bf 7dfa 8ebe 97f7 cfbe
00000120: ccc3 f1be 0acb 39be 145e cbbe 8664 4cbe
00000130: c3f5 9cbe 57a0 33be 0427 7dbe acd0 06be
00000140: 9b5f e6bd 965f 10be 6ed8 58bc 251f 25be
00000150: 3ba6 90bd 79c4 45be a59f b1be db4d b3be
00000160: 0c9d 13bf 1c49 0cbf f2d8 a7be a7f1 a3be
00000170: dc1a 7fbe 56ec ecbe bdf6 cfbe 41fc 92be
00000180: fbf0 f4bd 5695 55be b44e 4dbd 91c4 0dbe
00000190: 9300 33be cc7f 12bd f0bd f1bd a251 40be
000001a0: 1842 05be ffc4 67bc 6944 e7bc 4784 8dbe
000001b0: cc41 c5be 3ebe 81be df3c aebe 5bd1 9dbe
000001c0: 75b9 9cbe 4baf ccbe 1618 19be 1812 0ebe
000001d0: df09 0ebe 7a21 5dbe 3e7a 0fbe 97a7 eebb
000001e0: 5c65 03bf f817 01bf 1d3c 06bf 5c41 d5be
000001f0: 8796 f6be 566f cebe e9d6 dbbe 1e52 cebe
00000200: b301 d3be dea3 b1be c439 f4be edae 8abe
00000210: db86 8fbe baaa 4dbe 6472 75be 9c8a a43e
00000220: 3283 973e f749 b13e fe64 183e 7d71 aa3e
00000230: 4e2d a03e a7c2 883e 4bd3 893d e3fc 0b3e
00000240: b846 573b dd70 d3bd f580 89bd 3812 20be
00000250: 05bd 59be 855e 9cbe a585 b23d 00f5 983d
00000260: 90ad 63bc 6784 bd3d 5728 123e 1502 c43d
00000270: c40d 90bd 6cfd e03c 0a74 80bd 18d8 cfb9
00000280: 6c7b b33d f0cc 9c3c e6ef 213d e0ca 3b3e
00000290: cbac 403e 3317 a4bd 91f7 a1bc 539a 0bbb
000002a0: c2f6 85bd 275e 42be 65f0 babd 54fa 46be
000002b0: 7cd6 75bd 1e31 0cbe 760d d4bd cff8 dbbc
000002c0: eea0 d73c 7c45 23be 2e65 89bd ec1d 643d
000002d0: fd15 3a3e 671e 333e 1e04 4d3e ce6a 373e
000002e0: be7f 213d fec9 8fbd 8e60 0dbb f484 31bd
000002f0: e33a 043e 83cb 0f3c d83d 013c c5e1 413e
00000300: c7be 053e 2a13 373e e7f8 803e 2e11 e0bd
00000310: 81f0 2cbc be7e c0bd e2db 01bb e9a9 d0bd
00000320: 9988 dbbd 67d8 08ba bf3d 5cbd f6e8 5bbd
00000330: 307d d3bd 5732 0cbc 4d20 153b 2298 abbd
00000340: 2a0e babb fdd6 cbbd cc9c 34be a7b6 89be
00000350: db62 31be 2ccf 69be 5cf6 91be cda3 c2bd
00000360: 8493 d7bd 1d11 19be ef98 47be fbde 11be
00000370: e3be 6cbe 016f 85bd 6bca 3cbe d380 37be
00000380: 78f7 78be 283c b63d 9763 9eba 10ad f13d
00000390: c0ad 463d 7199 9bbc cd52 b13d ff17 1c3e
000003a0: 0270 873c c3f9 193e 0d65 823d f87b 2c3c
000003b0: 6c88 c63d 1ef7 053e 3cdd b23c c0a5 b83d
000003c0: e994 31bf bb24 18bf b05b 27bf 0dcd 1abf
000003d0: 82f1 ebbe fc5f 06bf d36e cbbe 2c4c 1abf
000003e0: c327 81be e0d4 e8be d1a6 03bf 268e 2cbe
000003f0: 67c0 1fbe b0d5 6b3d 06ac 9e3c 7a1a d73e
-0.10170643 -0.13821006 -0.29655027 -0.2643511 -0.26731992 -0.3265642 -0.3810518 -0.2157281
-0.15167183 -0.13785988 -0.061448243 0.04192748 0.18599065 0.32141578 0.19364554 0.12742701
0.124283284 -0.07137282 -0.13324237 0.026597187 -0.10083669 -0.14267813 -0.15093987 -0.3600535
-0.48105702 -0.43976933 -0.39364535 -0.4750718 -0.79075634 -0.7202205 -0.25061893 -0.22268923
-0.22020374 -0.2885184 -0.10053957 -0.28658763 -0.15091681 -0.17489375 -0.04826545 -0.09651972
-0.058121305 0.04813173 0.14944884 0.35048065 0.19827752 0.2011081 0.09399974 0.09730485
-0.030701432 0.04584118 0.077693075 0.19777822 0.015261326 0.100424044 0.13419467 0.3407
0.49675456 0.45013398 0.7436267 0.6899958 -0.46203944 -0.31218937 -0.40065634 -0.38389796
-0.48609805 -0.5301361 -0.38878465 -0.37364227 -0.42317942 -0.518893 -0.27925482 -0.40618584
-0.47219694 -0.1814386 -0.39720213 -0.19960222 -0.3065625 -0.17541634 -0.24721915 -0.1316554
-0.11248704 -0.14098963 -0.013235195 -0.16125162 -0.07062956 -0.1931323 -0.34692112 -0.35020337
-0.5766151 -0.54799056 -0.32782704 -0.32020304 -0.2491259 -0.4627406 -0.40617934 -0.2870808
-0.11960026 -0.20857748 -0.050123885 -0.13844515 -0.17480688 -0.035766408 -0.11803806 -0.1878114
-0.13013494 -0.014146089 -0.028230863 -0.27639982 -0.38526762 -0.25340456 -0.34030816 -0.30823788
-0.30610242 -0.39977488 -0.14950594 -0.1387409 -0.13870953 -0.21594802 -0.14011475 -0.007283162
-0.5132654 -0.504272 -0.52435476 -0.41651428 -0.48161718 -0.40319318 -0.429374 -0.40297025
-0.41212234 -0.34695333 -0.47700322 -0.27086583 -0.28032574 -0.20084658 -0.23969418 0.32137
0.29592282 0.34626743 0.14882275 0.3328971 0.31284565 0.26711008 0.06729754 0.13670687
0.0032848548 -0.10324261 -0.0671405 -0.1563195 -0.21263511 -0.30540863 0.08716897 0.07468605
-0.013896361 0.09253769 0.14273201 0.095707096 -0.070338756 0.027464591 -0.06272133 -0.0003964312
0.08763775 0.01914069 0.039535426 0.1833911 0.18815915 -0.080122374 -0.01977137 -0.0021301701
-0.06541206 -0.18981229 -0.09127883 -0.1943143 -0.060019 -0.13690612 -0.1035413 -0.02685204
0.026321854 -0.15944475 -0.067087516 0.0556926 0.1817245 0.17492066 0.20021102 0.17911837
0.039428465 -0.07020949 -0.0021572444 -0.043339685 0.12913089 0.008776548 0.00788828 0.1893378
0.13061057 0.17878404 0.25189897 -0.10940777 -0.0105553875 -0.09399174 -0.0019814898 -0.10188658
-0.10719413 -0.0005220235 -0.053769823 -0.053688966 -0.10326612 -0.008556924 0.0022754848 -0.083786264
-0.005677958 -0.09953115 -0.17637938 -0.26897165 -0.17322867 -0.22832936 -0.2850827 -0.09503899
-0.10526183 -0.14947934 -0.19491933 -0.14245217 -0.23119693 -0.06515313 -0.18436591 -0.17920236
-0.24313152 0.08898193 -0.0012084123 0.11800587 0.048505545 -0.018994065 0.08658371 0.15243529
0.016532902 0.15036683 0.0636693 0.010527603 0.09693989 0.13082549 0.021834008 0.09015989
-0.69367844 -0.59431046 -0.6537428 -0.6046913 -0.46082693 -0.5249021 -0.3973299 -0.6027248
-0.25225648 -0.4547491 -0.51426417 -0.168511 -0.1560074 0.057576835 0.019369137 0.42012388

convLayers.1.conv.bias f4 [8]
00000000: 8801 d8be ec62 9e3d 4198 09bf 0ac4 c43d
00000010: dea6 293e af53 26be ff86 72bd a4ba c0bd
-0.42188668 0.077337116 -0.53747946 0.09607704 0.16567561 -0.1624286 -0.059210774 -0.09410599

convLayers.1.norm.weight f4 [8]
00000000: 5989 6b3f 338f ab3f e731 ec3f beb2 923f
00000010: d905 483f 106e b73f 50e1 e73f d2db 423f
0.9200645 1.3403076 1.8452729 1.1460798 0.7813392 1.4330463 1.8115635 0.7611667

convLayers.1.norm.bias f4 [8]
00000000: 89b3 853e 79e6 31be f05f 97bc dd04 493d
00000010: 8c72 9dbe d2fd afbe 06e5 9cbe 608a e7bc
0.26113537 -0.17373075 -0.018478364 0.049076904 -0.30751455 -0.34373337 -0.3064348 -0.028264225

convLayers.1.norm.running_mean f4 [8]
00000000: a523 bac0 6640 0dc0 1714 02c1 b270 0cbf
00000010: e67f a840 d8ad b5c1 c023 0ec0 c474 8c40
-5.816851 -2.2070556 -8.129905 -0.5485946 5.2656126 -22.709885 -2.220932 4.3892536

convLayers.1.norm.running_var f4 [8]
00000000: 0e7e ca41 312a 6541 2890 8541 8c89 5041
00000010: 70ff 4342 e6ba 5142 9ced 4341 f46a 7541
25.31155 14.322801 16.695389 13.033581 48.99945 52.432518 12.24551 15.338612

convLayers.2.conv.weight f4 [8, 8, 1, 15]
00000000: e7e1 54bc eb1f 2b3d e9f8 2c3d bbfe 54bc
00000010: 627b 273d e337 a23d dabe 63bd ccb2 da3c
00000020: 4b28 00bd 1434 e0bc 4800 19bd 22c6 4fbd
00000030: abfc ba3c 7a3b 1eb9 d72f 1d3c 9d5c 07be
00000040: 9441 8ebd 2c99 9d3b 9397 dcbd 7a55 9abd
00000050: 9d02 ccbd 589c 79bd 86d0 f6bd d3db 30be
00000060: 30dd 06be 3781 57bd 0f73 abbd 0c5e 1dbe
00000070: da25 04be e3a4 83bd 0a0b dcbe 07a8 73be
00000080: 5756 b1be b792 9cbe a72b 82be 2665 7abe
00000090: 88ce 8ebe 118b d0be 4133 c4be a942 dabe
000000a0: f003 9abe 61ac dbbe e260 98be 2b6e 24bf
000000b0: 484d c7be b4bf 71be fb92 56bd a713 16be
000000c0: df54 0fbe 15f8 1d3c 6a96 08bc bed5 36bd
000000d0: 03be 8cbd 77d4 dfbd 9cb9 67bc e06f d2bd
000000e0: 923c a5bd 420a 3dbd b7e3 63be 4cb6 8cbd
000000f0: 25dd 5dbd de36 b9bd 77b5 08bd bf57 a7bd
00000100: 5248 02ba c3ff 47be 3cad 34be 653f 28be
00000110: a772 c9bd 7a02 20be 9c61 87bc 1dfe 22bd
00000120: d748 5fbd 627c ebbd 2147 67be 4c02 383e
00000130: cb79 bb3e 41f8 3f3e dfa9 5e3e c623 5c3e
00000140: 3da6 8c3e e6e4 823e d1ef a43e 5b03 993e
00000150: e73f a33e 60d5 953e a041 293e 6172 933e
00000160: 35a4 713e 897d 833e eb5e b2bc 0041 6bbd
00000170: 3f61 c4bc cbcb 4d3b 3f67 c2bd 8ddb 883c
00000180: fd5f 8bbd 3b51 f0bd 66c8 1ebe 930a c8bd
00000190: c1ef 2fbe 43fc d6bd 1aff b4bd 3114 3ebe
000001a0: e2d0 0dbe ab48 18be 64b1 18be 1d0c 40be
000001b0: 9be1 0dbe 4ac3 09be 7ff2 99bd 40dc c8bd
000001c0: 0e79 56be e310 2abe 367b 54be 35da ffbd
000001d0: a7be 27be a2c8 21be b7d6 14be 3ae6 e8bd
000001e0: f896 eabe 9e67 18bf 8ae0 99be 4288 edbe
000001f0: df4c cabe fb0a 65be 0a40 f9bd 9802 14be
00000200: d9dc 333d b114 21be a086 78be 0102 73be
00000210: feba d6be e99f 08bf 9afe 90be 0158 bcbe
00000220: 139d f1be 83ce 11bf 482b a1be 4bca dfbe
00000230: b5d4 c7be 4927 e0be 37b4 71be a44c acbe
00000240: f06b 8dbe ec0b 48be 98db 04be b6a6 7fbe
00000250: 2882 2bbe 6f48 973a 6d34 43bc 318b 07be
00000260: 81ac a4bd 2791 d23d fccc f1bd aff4 8d3d
00000270: 2d91 d63b 84d0 6f3d 8107 643d 22ea a8bb
00000280: e532 e2bd 0667 dab9 302b 4fbe 1dbe 2fbd
00000290: 7ab4 753d 1c06 c23d c87e 433d 1ac0 d1bc
000002a0: 1c6b 0b3e 93cb 8b3d 1221 133d 0665 d9bd
000002b0: d969 c03c 2342 a93c 97bf 303d 84f2 00bc
000002c0: dc17 96bc 3939 aebd 3d2e 4d3d 65ee c03c
000002d0: 8b8b 4bbd aa08 e8bd f343 36be 5293 1dbe
000002e0: a85e 95be 9b64 75be 6f67 96be 1f8d c5be
000002f0: 4a4e 79be 9c58 a5be e58e bcbe f229 abbe
00000300: 6281 68be cf9e fabe 51a6 b5be 5cbb 86be
00000310: 0702 bebe 8555 5bbe 02d8 d4be 63c5 13bf
00000320: cbbe 00bf a18b 52bf 24ae 4abf 5e35 1ebf
00000330: 5c19 43bf 7b87 16bf 117f babe 7ed5 17bf
00000340: a550 04bf 5743 b9be 8459 69bf 8042 45bf
00000350: ff68 23bf 0504 2abf 0e97 3fbf d0ae 01bf
00000360: 0415 1fbf 8f94 c2be d020 57be 5eba 58be
00000370: caf3 66be 9052 47be f544 a2be c7c5 5abd
00000380: b7ea c4bd 8487 e8be f05d 15bf 4b7d 0bbf
00000390: a8f5 d1be d646 e6be e01c a4be 2502 5dbe
000003a0: 53ba 47be 84c0 82be 7304 68be e5e2 c9bd
000003b0: b451 28bd 31d0 cf3d 943e d53d af9e 053e
000003c0: 906e b43d 0970 803d 1d64 88bd 7507 f53c
000003d0: 4463 7d3d 4d51 023d b9b7 e63c 33d4 01bd
000003e0: 2fc1 a13c 5704 d93d 50f6 103d 5af2 6d3d
000003f0: 7679 14bd cf6f a03c ebe1 203e 1fed e4be
-0.012993312 0.041778486 0.042229567 -0.013000186 0.04088915 0.07920816 -0.055601932 0.026696585
-0.031288426 -0.027368583 -0.037353784 -0.050726064 0.02282556 -0.00015090211 0.009593925 -0.13218923
-0.06946102 0.0048095193 -0.10771098 -0.075358346 -0.09961436 -0.060940117 -0.120514914 -0.17271356
-0.13170314 -0.052613463 -0.08371555 -0.15367907 -0.12905064 -0.06427934 -0.42977172 -0.23794566
-0.34636185 -0.30580685 -0.2542393 -0.24452648 -0.27891946 -0.407311 -0.38320354 -0.42628983
-0.3008113 -0.42904952 -0.29761416 -0.642306 -0.38926148 -0.23608285 -0.052386265 -0.14655934
-0.1399722 0.009641667 -0.008336643 -0.044637434 -0.06872179 -0.10929196 -0.014143374 -0.10275245
-0.080681935 -0.04615236 -0.22254835 -0.06870708 -0.054165978 -0.09043668 -0.033376183 -0.08171033
-0.0004969883 -0.19531159 -0.17644209 -0.16430433 -0.09836321 -0.15625945 -0.016526036 -0.039793123
-0.054512825 -0.114983335 -0.22585727 0.17969626 0.36616358 0.18747045 0.21744488 0.21498021
0.2747058 0.2556526 0.32214215 0.29885373 0.3188469 0.29264355 0.1652894 0.28798202
0.23597796 0.25681713 -0.021773776 -0.057435036 -0.023972152 0.0031401988 -0.09492349 0.016706252
-0.06805418 -0.117342435 -0.15506133 -0.09767642 -0.17181303 -0.10497334 -0.08837719 -0.1856239
-0.13849214 -0.1487147 -0.14911419 -0.18754621 -0.13855593 -0.13453403 -0.075169556 -0.09807634
-0.20944616 -0.16608004 -0.20750126 -0.124927916 -0.16381322 -0.15799192 -0.14535032 -0.11372037
-0.45818305 -0.5953311 -0.30054122 -0.4639302 -0.39511773 -0.2236747 -0.121704176 -0.14454114
0.04391179 -0.1573055 -0.24270105 -0.23731233 -0.4193954 -0.53369004 -0.28319246 -0.36785892
-0.4719015 -0.56955737 -0.31478333 -0.43709025 -0.3902947 -0.43779972 -0.23603903 -0.33652222
-0.27621412 -0.19535798 -0.12974393 -0.24965939 -0.1674887 0.0011541973 -0.011914355 -0.13236691
-0.08040715 0.10281592 -0.11806676 0.06931435 0.006548068 0.058548465 0.05567122 -0.005154864
-0.110448636 -0.0004165696 -0.20231318 -0.042905916 0.05998657 0.094738215 0.04772833 -0.025604296
0.13615078 0.06825938 0.03592021 -0.10614972 0.023487972 0.02066142 0.043151464 -0.00787032
-0.018321924 -0.08507008 0.050092924 0.023551175 -0.049693625 -0.113297775 -0.17799358 -0.1538823
-0.2917378 -0.23964159 -0.2937579 -0.3858423 -0.24346271 -0.32294166 -0.3682777 -0.3343044
-0.22705606 -0.48949286 -0.35478452 -0.2631482 -0.37110922 -0.21419342 -0.4157105 -0.57723063
-0.50291127 -0.82244307 -0.7917197 -0.6180018 -0.7621057 -0.58800477 -0.3642507 -0.5931014
-0.51685554 -0.3618419 -0.91152215 -0.77054596 -0.63832086 -0.66412383 -0.74839866 -0.5065737
-0.6214144 -0.38003966 -0.2100861 -0.21164843 -0.22553936 -0.19465089 -0.31693235 -0.05341127
-0.09615081 -0.4541589 -0.5834646 -0.54488057 -0.41007733 -0.4497592 -0.3205328 -0.2158285
-0.19504671 -0.25537503 -0.22657947 -0.0985773 -0.041093543 0.10147131 0.104123265 0.13048814
0.088101506 0.06271369 -0.0665972 0.029910782 0.061862245 0.031815816 0.028163778 -0.03169651
0.019745437 0.10596531 0.035391152 0.058092453 -0.036248647 0.019584564 0.15711181 -0.4471216

convLayers.2.conv.bias f4 [8]
00000000: fc90 3bbe 8ed5 323d fdf8 b2bd 7bea 883d
00000010: 7bab dbbd 96be cbbd 73f3 08be 70e5 a33d
-0.18317026 0.043660693 -0.08738897 0.066853486 -0.10726067 -0.09948461 -0.13374119 0.08002746

convLayers.2.norm.weight f4 [8]
00000000: 6271 503f df7b f03f 7382 923f cdc4 9b3f
00000010: 2923 423f 1399 bf3f beb1 783f 99e2 733f
0.8142301 1.8787802 1.144606 1.2169434 0.758349 1.496859 0.97146213 0.95267636

convLayers.2.norm.bias f4 [8]
00000000: 5d06 273f 8119 ae3d cc89 40be 4afd 9fbe
00000010: 09d4 c6bc 9f16 19be 4977 91be 2a88 153f
0.65244085 0.08500958 -0.18802565 -0.31247932 -0.024271028 -0.14950036 -0.2841132 0.58410895

convLayers.2.norm.running_mean f4 [8]
00000000: aaed 70c0 50a7 0ec1 8697 80c0 0af1 3d3f
00000010: 11c8 5bc0 dbcf 93bf ed49 6a40 0fd7 1dc1
-3.7645059 -8.915848 -4.0184965 0.7419592 -3.434086 -1.1547807 3.660762 -9.865005

convLayers.2.norm.running_var f4 [8]
00000000: 6582 3c41 72e9 f541 8589 1841 a326 7140
00000010: 86b4 ac41 4d96 4141 9beb 1d41 84a5 9242
11.781835 30.738987 9.533574 3.7679832 21.588146 12.099195 9.870021 73.32327

convLayers.3.conv.weight f4 [1, 8, 1, 3]
00000000: 0c0d 9f3e ad8f 103e 5019 cd3e e0a5 36bf
00000010: bfb4 98be f739 16bf 4fb2 f5be 6311 15bd
00000020: c152 99bd 3ab8 babe 57eb 39be fe12 fcbe
00000030: 1387 31be dd81 de3d 1e4c 99be 5596 dbbe
00000040: 3cef f6be a4b7 f8bd b318 25be 9546 5dbe
00000050: b3f5 75be 24b8 fb3e 75e8 963e ee8c 0a3f
0.3106464 0.14117308 0.40058374 -0.71346855 -0.29825398 -0.586822 -0.479876 -0.036393534
-0.07486487 -0.3646868 -0.18156181 -0.4923324 -0.17336683 0.10864613 -0.29940885 -0.42888132
-0.48229396 -0.12144402 -0.16122703 -0.21608956 -0.24019508 0.49163926 0.29474226 0.5412129
